Human-Action-Recognition-Using-Detectron2-And-Lstm/models/saved_model.ckpt (torch, 216840 bytes, 18 tensors)

lstm.weight_ih_l0 f4 [200, 34]
0	0x3c79c4a6	0.015244639
1	0x3cd20066	0.025634956
2	0xbe0a8dda	-0.13530675
3	0xbe034014	-0.12817413
4	0xba3d6137	-0.0007224264
5	0xbd8ad818	-0.06779498
6	0xbd9000a0	-0.07031369
7	0x3d7138a5	0.05889191
8	0x3d0faa70	0.03507465
9	0x3db453ab	0.08805021
10	0x3e01a59e	0.12660834
11	0xbd81c883	-0.06337073
12	0xbd025638	-0.031820506
13	0x3db0af06	0.08627133
14	0x3da7fc50	0.08202422
15	0xbe10d1fe	-0.14142606
16	0x3dbcfece	0.09228288
17	0xbe078e2d	-0.1323783
18	0xbd15d795	-0.03658255
19	0x3d559f92	0.05215413
20	0x3de77fcb	0.113036714
21	0x3d66d036	0.05635091
22	0xbdf6590b	-0.12028702
23	0xbd1ebcc5	-0.038754243
24	0xbe0a4725	-0.13503702
25	0x3ce4eea8	0.027945831
26	0x3b0f25b4	0.0021842541
27	0xbdae9bb8	-0.08525795
28	0x3dc7825d	0.09741662
29	0x3e195f81	0.14977838
30	0xbe04f82c	-0.12985295
31	0x3d4695b6	0.04848262
32	0xbd8d579c	-0.06901476
33	0xbdb1be09	-0.086788245
34	0xbc819287	-0.01581694
35	0xbe0759a5	-0.1321779
36	0xbd09785d	-0.033562053
37	0x3dd408b0	0.103532195
38	0xbd190ba6	-0.037364624
39	0x3b65a6ce	0.003504205
40	0x3d4203da	0.047366954
41	0x3dec2e6e	0.11532293
42	0x3cb00c40	0.021490216
43	0xbdc352b2	-0.09537257
44	0xbd85548d	-0.065102674
45	0xbdc982dd	-0.09839413
46	0x3cf649da	0.030064512
47	0x3e00e3cf	0.12586902
48	0x3daf476f	0.08558547
49	0x3e060baf	0.13090394
50	0x3d92dfe9	0.07171614
51	0x3c4b3658	0.012403093
52	0xbd65bbce	-0.056087308
53	0xbd247751	-0.04015285
54	0x3e06f49a	0.13179246
55	0x3db02261	0.08600307
56	0xbcac5c42	-0.021040086
57	0xbdbb6909	-0.09150893
58	0x3d2a48db	0.041573387
59	0x3d0e0fb0	0.03468293
60	0x3d9a53b8	0.07535499
61	0xbd629e47	-0.055326726
62	0x3dab6b31	0.083700545
63	0x3d5d1a26	0.053980015
64	0xbd2429e7	-0.040079024
65	0x3da33d7e	0.07970713
66	0x3d3321f2	0.043733545
67	0x3df31c87	0.118706755
68	0x3d9a40be	0.0753188
69	0xbbf91e87	-0.007602516
70	0xbe07c61b	-0.13259165
71	0x3df518bc	0.11967608
72	0xbcbbd51a	-0.022928763
73	0x3e086c6c	0.1332261
74	0xbb85a06a	-0.0040779607
75	0xbdbc20a8	-0.09185916
76	0xbcf30038	-0.02966319
77	0xbd95cddc	-0.07314655
78	0xbde47cb9	-0.111566015
79	0xbdf9ef9a	-0.122039035
80	0xbe09929d	-0.13434835
81	0xbd6b7549	-0.0574849
82	0xbe0223e7	-0.12709008
83	0x3e0a5467	0.1350876
84	0xbce6eeb1	-0.028189989
85	0xbca9155e	-0.020640071
86	0x3d615e86	0.055021785
87	0x3d7d2820	0.061805844
88	0x3e099c9e	0.13438651
89	0xbdb33482	-0.087502494
90	0xbc6fd135	-0.014637281
91	0x3ca980d9	0.020691322
92	0xbe027ef9	-0.12743749
93	0xbcb504ab	-0.022096952
94	0x3dd9a1be	0.10626553
95	0xbd15f288	-0.03660825
96	0x3dc614f4	0.09671965
97	0xbe08aaaa	-0.13346353
98	0xbd96ba53	-0.07359757
99	0xbd141e96	-0.03616198
100	0x3dec8c9c	0.115502566
101	0xbdfdf8ad	-0.12400947
102	0xbd4bfef3	-0.049803685
103	0xbc3785ce	-0.011201335
104	0xbd57284c	-0.052528664
105	0x3e01f3be	0.12690637
106	0x3dffce6d	0.124905445
107	0x3dfa22ce	0.1221367
108	0x3d933846	0.07188468
109	0x3d1234c6	0.03569486
110	0x3d86554f	0.0655924
111	0x3da88c91	0.08229936
112	0xbdb35deb	-0.08758148
113	0x3db3503a	0.087555364
114	0xbdc6942c	-0.0969623
115	0x3d6c8041	0.0577395
116	0x3ddecc1a	0.10878773
117	0x3c9b6dd2	0.018973265
118	0x3de8c627	0.113659196
119	0x3ddfe604	0.10932544
120	0x3e0b0b2b	0.13578479
121	0x3d98210c	0.07428178
122	0xbdcbf13b	-0.099581204
123	0x3dfe0935	0.124041
124	0xbcbefd4a	-0.023314137
125	0x3d971e8c	0.07378873
126	0xbb05802b	-0.0020370584
127	0x3d92fda3	0.071772836
128	0x3d93d384	0.07218078
129	0xbd580a1d	-0.05274402
130	0x3d6e8b71	0.05823845
131	0xbd1f2f6f	-0.038863596
132	0xbda6ec6d	-0.081505634
133	0x3d4f34b7	0.050587382
134	0x3df67936	0.12034838
135	0x3d6e222c	0.058138058
136	0xbddbfd08	-0.10741621
137	0x3dad0c72	0.084496394
138	0x3d3320c8	0.043732435
139	0x3bb9f36a	0.005674769
140	0xbe2f4d6f	-0.17119382
141	0xbcdff608	-0.027338997
142	0x3de25357	0.11051052
143	0x3e100102	0.14062884
144	0xbd042e5f	-0.032270785
145	0x3d6b4709	0.05744079
146	0xbcbd196f	-0.023083417
147	0x3c93bc60	0.01803416
148	0x3c826cf6	0.015921097
149	0xbd3ac694	-0.045599535
150	0x3cb000e4	0.0214848
151	0xbd1acb9e	-0.03779184
152	0xbccab72a	-0.024745543
153	0xbdbc7519	-0.09202022
154	0x3db7e71c	0.089796275
155	0x3dfb2190	0.12262261
156	0x3d94d787	0.07267671
157	0xbd909663	-0.07059934
158	0x3d80f324	0.062963754
159	0xbcfb2c37	-0.030660732
160	0xbcab4c3c	-0.020910375
161	0xbd316a8c	-0.0433145
162	0xbd8e462a	-0.069469765
163	0xbd56c4c6	-0.05243375
164	0x3d3fbd3d	0.04681133
165	0x3ca7f5af	0.020502893
166	0x3d870b80	0.0659399
167	0x3d1abe59	0.037779186
168	0xbe1693e7	-0.14704858
169	0x3ca6c273	0.020356392
170	0x3dcb51dc	0.09927723
171	0x3d1acd06	0.03779318
172	0xbc823cef	-0.015898196
173	0x3dc993e7	0.09842663
174	0x3dfecffe	0.12442015
175	0xbc6eefc8	-0.0145835355
176	0x3c2f3d8f	0.010695829
177	0x3dddf48f	0.108376615
178	0xbdda20c4	-0.10650781
179	0xbd4c241c	-0.049839124
180	0xbd649c41	-0.055813078
181	0x3d63372d	0.05547254
182	0x3de9e4ec	0.114206165
183	0x3dc7b123	0.09750583
184	0x3d9ab966	0.07554893
185	0xbdfb29d8	-0.122638404
186	0x3de7f765	0.11326484
187	0x3a9c8928	0.0011942731
188	0xbc993fe5	-0.018707225
189	0xbdce24a2	-0.10065581
190	0x3deec131	0.11657942
191	0x3be153cb	0.006876444
192	0xbdd49960	-0.103808165
193	0x3df2b7b9	0.118514486
194	0x3e0cde3c	0.1375665
195	0x3d28470c	0.04108338
196	0xbd4b6feb	-0.04966728
197	0x3d97888d	0.07399092
198	0xbd442afc	-0.047892556
199	0x3df6fda0	0.12060094
200	0x3d9e7995	0.07738034
201	0xbd4af80d	-0.049552966
202	0xbb6e5427	-0.0036366077
203	0xbdaabd57	-0.08336895
204	0xbdf85b80	-0.12126827
205	0xbd4f3178	-0.050584286
206	0xbd964f5b	-0.073393546
207	0x3d9f1428	0.077675164
208	0x3db1fc04	0.08690646
209	0xbe18af00	-0.14910507
210	0xbd1f086d	-0.038826395
211	0xbcc1855d	-0.023623163
212	0x3d022958	0.03177771
213	0x3dc1c49b	0.09461328
214	0xbd092640	-0.033483744
215	0xbe032987	-0.1280881
216	0x3d1433b5	0.036182124
217	0x3da3409d	0.079713084
218	0xbdc1933b	-0.0945191
219	0x3d0756f5	0.033041913
220	0x3e0d494f	0.13797496
221	0x3e034d17	0.12822376
222	0x3d9cd99b	0.076586924
223	0x3d81decb	0.063413225
224	0xbdd1c81d	-0.10243247
225	0x3dbcf708	0.09226805
226	0x3b7ce347	0.0038587616
227	0xbdcc5a54	-0.09978166
228	0x3d88b4e8	0.0667513
229	0xbd3c1f4c	-0.045928285
230	0x3d699e68	0.057035834
231	0x3d9d6765	0.076857366
232	0x3bdacdab	0.0066773496
233	0xbddf48f5	-0.10902587
234	0x3becb7e1	0.0072240685
235	0xbbc30704	-0.005951764
236	0xbe132003	-0.1436768
237	0xbdad3bfc	-0.08458707
238	0x3d0c4047	0.034240987
239	0xbd4e715f	-0.050401088
240	0x3d248252	0.040163346
241	0xbdf48237	-0.11938899
242	0xbe0ffdf9	-0.14061727
243	0xbccd7770	-0.025081366
244	0x3d88ed05	0.06685833
245	0xbdb6b1a0	-0.08920598
246	0x3d2da834	0.04239674
247	0x3d365aee	0.04452031
248	0xbd93b355	-0.07211939
249	0x3ddf0c84	0.10891059
250	0x3d81a4ef	0.06330287
251	0x3e02a8a0	0.12759638
252	0x3d8513a3	0.06497886
253	0x3ca8da8f	0.02061203
254	0xbda6728f	-0.08127319
255	0x3d206964	0.03916301

lstm.weight_hh_l0 f4 [200, 50]
0	0xbf1e6b1b	-0.6188218
1	0x3e33d78b	0.17562692
2	0xbde27980	-0.110583305
3	0xbe09b189	-0.1344663
4	0xbe58078f	-0.21096633
5	0xbf9ddcb0	-1.2332973
6	0x3e5dc35b	0.21656553
7	0xbe7a3c19	-0.24436988
8	0x3e1d5865	0.15365751
9	0x3cbb88c4	0.022892363
10	0x3ecd8a5a	0.40144616
11	0xbed26796	-0.41094655
12	0x3e31e165	0.17371137
13	0xbdef39c4	-0.1168094
14	0x3f0e3f90	0.5556574
15	0x3bb444fd	0.005501388
16	0xbeeb252c	-0.45926797
17	0x3e57018e	0.20996687
18	0x3eab5c92	0.33469063
19	0xbe52a261	-0.20569755
20	0xbd46b837	-0.048515525
21	0xbcf513d0	-0.029916674
22	0x3eeadb4c	0.45870435
23	0xbebe7fc0	-0.3720684
24	0xbe0932bb	-0.13398258
25	0x3ddd056b	0.10792049
26	0xbd4dbe5f	-0.05023038
27	0x3f188e4e	0.5959214
28	0xbcdf2a25	-0.027241776
29	0x3d3249a6	0.043527268
30	0x3f3bd306	0.7336887
31	0x3ddfabb6	0.10921423
32	0xbcfef2ad	-0.031121576
33	0x3e44a1b2	0.19202307
34	0xbf5178ec	-0.8182514
35	0x3ef191cb	0.47181544
36	0x3cd2451b	0.025667718
37	0xbf3da861	-0.7408505
38	0xbec14ad3	-0.377524
39	0xbe48c891	-0.1960776
40	0xbf47d643	-0.7806131
41	0xbefa750f	-0.48917434
42	0x3bc13a15	0.0058968165
43	0x3e720cb5	0.2363766
44	0xbde58831	-0.11207617
45	0x3d78cf17	0.06074437
46	0x3f7e0230	0.9922209
47	0x3eef285d	0.46710482
48	0x3e8bafa2	0.27282435
49	0xbc9ef327	-0.019403053
50	0xbdc93f6e	-0.098265514
51	0x3c297149	0.010341951
52	0x3de2e65c	0.11079094
53	0xbcc2afa2	-0.023765389
54	0xbdb48f91	-0.088164456
55	0x3c766c08	0.015040405
56	0xbd5a5bd1	-0.05331022
57	0xbd8cd651	-0.06876815
58	0xbdee3a53	-0.11632218
59	0xbd84074f	-0.064467065
60	0x3cdb0bde	0.026739057
61	0x3b1c3678	0.0023836177
62	0xbd97f027	-0.07418852
63	0xbdee985b	-0.11650153
64	0xbd819090	-0.06326401
65	0x3d4d3e28	0.050108105
66	0xbddcbb16	-0.10777871
67	0x3d760309	0.06006149
68	0x3cc7949b	0.024362853
69	0x3e09ed9d	0.13469549
70	0x3dc2ae13	0.09505858
71	0xbcb8d7a9	-0.022563772
72	0x3e099db6	0.13439068
73	0x3cc6ad8f	0.024252681
74	0xbda3e79f	-0.080031626
75	0xbd6d348b	-0.057911437
76	0x3e01d6cc	0.12679595
77	0xbc9d592a	-0.019207556
78	0x3d7c04ac	0.061527893
79	0x3ceb4fab	0.028724512
80	0xbbe2e27a	-0.0069239708
81	0xbcf3ce84	-0.02976156
82	0xbe006c4f	-0.12541316
83	0xbdf38a51	-0.11891616
84	0xbcba06c9	-0.022708314
85	0xbd456f72	-0.048201986
86	0xbd7405c7	-0.059575822
87	0x3d90a4ee	0.07062708
88	0xbd4f2aac	-0.050577804
89	0xbcef3fde	-0.029205259
90	0x3d0e8fc9	0.034805093
91	0x3dc72667	0.097241215
92	0x3e00099b	0.12503664
93	0xbdb77558	-0.089579284
94	0xbdef32e1	-0.11679626
95	0x3d96bf14	0.07360664
96	0xbd7ed4c0	-0.062214613
97	0x3d04d54f	0.03242999
98	0x3d4f569f	0.050619718
99	0x3de855df	0.113445036
100	0x3dfba5f0	0.122875094
101	0x3e0ae948	0.13565552
102	0xbdfeda5c	-0.124439925
103	0xbd651239	-0.05592558
104	0xbc608576	-0.013703695
105	0xbe0ca029	-0.13732971
106	0x3df3491a	0.118791774
107	0x3dfc21ce	0.12311135
108	0x3d506520	0.05087769
109	0xbbee7c2b	-0.0072779856
110	0xbe058511	-0.13039042
111	0xbd9ef1da	-0.07760973
112	0x3def5231	0.11685599
113	0xbd29e5ae	-0.041478805
114	0xbd9bd893	-0.07609668
115	0x3dc1c189	0.09460742
116	0xbd9b9cc3	-0.07598259
117	0x3daff55d	0.08591721
118	0x3c88fdbe	0.016722556
119	0x3d66f051	0.056381527
120	0xbd2bdde2	-0.04195965
121	0xbd186b29	-0.03721157
122	0xbc1d1b87	-0.009589083
123	0xbd7477c3	-0.059684526
124	0xbe02c0d7	-0.12768875
125	0xbd8f0cf2	-0.06984891
126	0x3ddee901	0.10884286
127	0x3cd9d90e	0.026592758
128	0x3d99ac3e	0.07503556
129	0xbdfdb689	-0.123883314
130	0xbd0f1d0b	-0.034939807
131	0xbdf0ed94	-0.117640644
132	0xbd86222f	-0.06549489
133	0xbdbdb9e9	-0.09263975
134	0x3bc43a48	0.005988393
135	0x3d04e293	0.03244264
136	0xbdc5e642	-0.09663059
137	0x3dbf82fc	0.09351155
138	0xbe029658	-0.12752664
139	0x3d083265	0.033251185
140	0x3d9776d7	0.07395714
141	0xbd6e83ee	-0.058231287
142	0xbc0c8b4b	-0.008578132
143	0x3d996dde	0.07491659
144	0x3d65693c	0.056008562
145	0x3d310187	0.043214347
146	0x3a8b4f13	0.0010628424
147	0xbd3625a1	-0.04446948
148	0xbd04addc	-0.032392368
149	0x3c91e800	0.017810822
150	0x3dce8651	0.100842126
151	0x3dbb4510	0.09144032
152	0x3d2e514d	0.042558003
153	0xbe01c27c	-0.12671846
154	0xbe08077a	-0.13284102
155	0x3ce3d864	0.027813144
156	0x3e0d8b37	0.13822637
157	0x3de862ca	0.113469675
158	0xbd4f3ef7	-0.050597157
159	0xbde0f344	-0.10983899
160	0xbcbd1e03	-0.0230856
161	0x3dd92aba	0.106038526
162	0x3deb2323	0.11481311
163	0xbdce7db0	-0.10082567
164	0xbda3856e	-0.07984434
165	0xbc168c14	-0.009188671
166	0xbc38ba08	-0.011274822
167	0x3e07f934	0.13278657
168	0xbcbaa609	-0.02278425
169	0x3d5fc783	0.05463363
170	0x3d7e39d4	0.062066868
171	0xbd0db321	-0.03459466
172	0x3e0b0585	0.13576324
173	0xbdb6a896	-0.08918874
174	0x3ceaf5ef	0.028681723
175	0x3d1269b8	0.035745353
176	0x3d1edc50	0.038784325
177	0x3d5696a7	0.052389767
178	0xbd8f2a09	-0.069904394
179	0xbe0d17ad	-0.13778563
180	0xbdda5861	-0.10661388
181	0x3dfffc93	0.124993466
182	0x3e03c413	0.12867765
183	0xbded9207	-0.11600118
184	0x3d519204	0.051164642
185	0x3dce239a	0.10065384
186	0xbc7739cf	-0.015089466
187	0x3df4ee4d	0.11959515
188	0xbd59e5a4	-0.053197518
189	0x3d6b5b75	0.057460267
190	0xbe0e3d64	-0.13890606
191	0x3c199dad	0.009375972
192	0x3dc37a5d	0.09544823
193	0xbe015c88	-0.12632954
194	0x3e01db78	0.12681377
195	0x3d10aed2	0.03532297
196	0x3db73130	0.08944929
197	0xbd9da972	-0.07698335
198	0xbdc4130e	-0.09573947
199	0xbd81d1c8	-0.06338841
200	0xbd1a157d	-0.03761815
201	0x3d79a8f4	0.060952142
202	0x3e010ff2	0.12603739
203	0xbeb00935	-0.34382024
204	0xbf53dc5c	-0.82758117
205	0x3e772c3d	0.2413797
206	0x3dffcbcb	0.12490042
207	0x3e317ba8	0.17332327
208	0xbf5b4966	-0.8565887
209	0x3dcefca4	0.10106781
210	0x3e9a8e7d	0.30186835
211	0xbe7c3faa	-0.24633661
212	0xbe83c41c	-0.25735557
213	0xbcf53a43	-0.029935008
214	0xbe167b40	-0.14695454
215	0xbf09b2c2	-0.5378839
216	0xbe43e7b1	-0.19131352
217	0xbdc12c7c	-0.09432313
218	0xbea7a5a4	-0.3274356
219	0x3d756620	0.059911847
220	0xbec25466	-0.37955016
221	0x3f2ff158	0.68727636
222	0x3f44d17c	0.7688215
223	0xbe66bf6a	-0.22533956
224	0x3e5e08a7	0.21682988
225	0xbdbd349d	-0.09238551
226	0x3ce57f59	0.028014826
227	0xbf564fde	-0.8371562
228	0x3de2fde2	0.110835806
229	0xbdcd38bc	-0.10020587
230	0xbf04d20b	-0.51883
231	0x3d1e7116	0.038682066
232	0xbdbf5a2a	-0.09343369
233	0xbe03a635	-0.12856372
234	0xbe4a8c4d	-0.19780083
235	0xbf644f40	-0.89183426
236	0xbe82d9b9	-0.25556734
237	0x3f3ddd5f	0.7416591
238	0xbebaf3e0	-0.36514187
239	0x3db3bae8	0.08775884
240	0xbd5df63a	-0.054189898
241	0xbe838106	-0.25684375
242	0x3e04e30c	0.12977237
243	0x3ee357e3	0.4440299
244	0xbe3d60d8	-0.18493974
245	0xbf2e19a8	-0.680079
246	0xbe07348a	-0.13203636
247	0xbd94d40c	-0.07267007
248	0xbea90192	-0.3300901
249	0xbd09161f	-0.033468362
250	0xbdbf7e4c	-0.09350261
251	0x3bc5e3dd	0.0060391263
252	0x3d19f365	0.037585635
253	0x3dcb0f87	0.09915071
254	0xbdc48907	-0.095964484
255	0xbd8d295f	-0.068926565

lstm.bias_ih_l0 f4 [200]
0	0x3c8eb98f	0.017422466
1	0x3d54ccc1	0.05195308
2	0xbdf352e7	-0.11881047
3	0xbbcd26ce	-0.0062607294
4	0x3de3192a	0.11088784
5	0x3d46a5b7	0.04849788
6	0xba95c498	-0.0011426387
7	0x3d807db7	0.06273978
8	0x3d030e30	0.031995952
9	0xbdf9ee94	-0.12203708
10	0x3dfea6be	0.12434147
11	0xbdf5dedf	-0.120054
12	0xbd90f0c6	-0.07077174
13	0x3c44941b	0.011998202
14	0xbe1cacd3	-0.15300302
15	0xbdb75da9	-0.08953411
16	0xbd564ad0	-0.05231744
17	0x3dad4f5e	0.08462404
18	0x3d05f3fe	0.032703392
19	0xbde90f85	-0.11379913
20	0xbd236a5f	-0.039896365
21	0xbbe2c359	-0.00692026
22	0x3e08c5e4	0.1335674
23	0xbcb22106	-0.021744262
24	0x3d234351	0.03985912
25	0xbdb79a6f	-0.08965003
26	0xbca10d02	-0.019659523
27	0xbdd845fc	-0.105602235
28	0xbdf85b3e	-0.12126778
29	0x3c6d6b34	0.014490891
30	0x3d58f5fb	0.05296896
31	0x3ced5658	0.028971836
32	0x3d7b1d8b	0.06130747
33	0x3e455189	0.19269384
34	0x3dadaa1d	0.08479712
35	0x3dbbbb2b	0.09166559
36	0xbc814a6f	-0.015782563
37	0xbe250fa9	-0.16119255
38	0x3dacb0e2	0.08432175
39	0xbce5a58c	-0.02803304
40	0x3b38c9bd	0.0028196417
41	0x3c0ffc21	0.00878814
42	0xbe02290a	-0.12710968
43	0xbd3cc29f	-0.046084043
44	0x3e0a1006	0.13482675
45	0x3d891def	0.066951625
46	0xbdc0222e	-0.09381519
47	0x3de5a872	0.11213769
48	0xbdb069e8	-0.0861395
49	0x3e01b97b	0.12668411
50	0x3e17466a	0.14772955
51	0xbdb15365	-0.08658484
52	0x3df39c27	0.11895018
53	0x3d985524	0.07438114
54	0x3dc6dd56	0.09710185
55	0x3d3f0a1e	0.046640508
56	0x3ddce6f6	0.1078624
57	0x3b98ace8	0.004659284
58	0x3dd9957c	0.10624215
59	0x3d3d1eb8	0.046171874
60	0xbd7a85e7	-0.061162855
61	0x3ba7e249	0.005123411
62	0xbb4c4cbb	-0.0031173665
63	0xbc322fea	-0.010875681
64	0xbd8056bf	-0.062665455
65	0x3db68340	0.08911753
66	0x3dae7434	0.08518258
67	0x3dded8e7	0.108812146
68	0x3dffaa76	0.12483685
69	0xbdaf7b17	-0.085683994
70	0xbdf05b53	-0.11736169
71	0xbe09c2eb	-0.13453262
72	0xbc07be11	-0.008285061
73	0xbdfc978b	-0.12333592
74	0xbdc9451d	-0.098276354
75	0x3e008419	0.12550391
76	0xbde63107	-0.1123982
77	0xbdff0191	-0.12451471
78	0x3d637ce0	0.055539012
79	0xbd80a569	-0.062815495
80	0xbd2f79cb	-0.04284076
81	0x3d89f60b	0.06736382
82	0xbd95ee7c	-0.07320878
83	0xbde74d34	-0.11294022
84	0xbdf99553	-0.121866845
85	0x3e0a5cc4	0.1351195
86	0x3df646d3	0.120252274
87	0x3df76c95	0.12081257
88	0x3e08cd77	0.13359629
89	0xbd40cf8b	-0.04707293
90	0x3db1e17d	0.086855866
91	0x3d608fdb	0.05482469
92	0x3dcd9ebf	0.10040044
93	0xbde63c1f	-0.11241936
94	0x3d46a45c	0.04849659
95	0xbdf35fde	-0.118835196
96	0xbd2dab3b	-0.042399626
97	0x3d9802c2	0.07422401
98	0xbd86bb41	-0.065786846
99	0xbe09bad3	-0.13450174
100	0xbdf6e128	-0.12054664
101	0x3dae2609	0.085033484
102	0xbdb5bee3	-0.088742994
103	0xbd35d7cd	-0.044395257
104	0x3dbf2ba3	0.09334495
105	0xbdb9ae79	-0.09066481
106	0x3cdfb51c	0.02730804
107	0x3e011019	0.12603797
108	0xbdf4d74f	-0.11955129
109	0xbd648f29	-0.05580059
110	0xbd3d0c1b	-0.046154123
111	0xbc34717c	-0.011013385
112	0x3da79550	0.08182776
113	0x3b930e0e	0.0044877594
114	0xbd2044c1	-0.03912807
115	0xbe0c5d17	-0.13707386
116	0x3e0220bc	0.127078
117	0x3dc863fe	0.09784697
118	0xbdf518c7	-0.119676165
119	0xbd1e08ab	-0.038582485
120	0xbd994586	-0.07483964
121	0x3c2486d5	0.010041912
122	0x3e05096d	0.12991877
123	0xbd6ea038	-0.058258265
124	0xbc3dd0bc	-0.011585411
125	0x39161d7d	0.000143161
126	0xbcfae111	-0.030624898
127	0x3d9c8a57	0.07643574
128	0xbdbb0c86	-0.09133248
129	0x3df70a06	0.12062459
130	0x3dc3cf4d	0.09561024
131	0xbcdb75b9	-0.026789533
132	0xbce54dca	-0.027991194
133	0xbdd807b2	-0.10548343
134	0x3b8dc29c	0.0043261778
135	0xbdf3e698	-0.11909217
136	0x3cdb70e6	0.026787233
137	0xbd6a5230	-0.057207286
138	0x3d30e166	0.043183707
139	0xbd25e5c3	-0.04050232
140	0xbdb11876	-0.08647244
141	0x3e016b0d	0.12638493
142	0xbe08861f	-0.13332413
143	0xbdb0838d	-0.08618841
144	0x3ded2bde	0.115806326
145	0xbdf2f815	-0.11863724
146	0x3d92b3aa	0.071631745
147	0x3c4ec0fb	0.012619252
148	0xbda758d3	-0.08171239
149	0x3df2c47a	0.11853881
150	0x3d9e13c0	0.07718611
151	0xbc474995	-0.012163539
152	0x3da3fb67	0.080069356
153	0xbdcb0f78	-0.0991506
154	0x3da426f0	0.08015239
155	0x3e00bad0	0.12571263
156	0x3df0d573	0.11759462
157	0xbc3f8cbc	-0.0116912685
158	0xbe0b8993	-0.13626699
159	0x3e073070	0.13202071
160	0x3d880c70	0.06642997
161	0xbcd4696c	-0.025929175
162	0xbdc4a4e3	-0.09601762
163	0x3decd61f	0.11564278
164	0xbd256c21	-0.040386323
165	0x3dffd057	0.124909095
166	0x3c932b2e	0.017964926
167	0x3dd7748f	0.10520279
168	0x3cf59249	0.02997698
169	0x3d2e3596	0.042531572
170	0xbd897383	-0.06711485
171	0xbd8fcdc7	-0.07021671
172	0xbd9c6cbc	-0.07637927
173	0xbd46d5e8	-0.04854384
174	0xbd97555b	-0.07389327
175	0xbda8ca44	-0.08241704
176	0x3dbb3b4e	0.09142171
177	0x3d3ed273	0.04658742
178	0xbcb8ab9d	-0.02254277
179	0x3dc750f7	0.0973224
180	0xbde487d1	-0.111587174
181	0x3da5d67d	0.08097551
182	0xbd216577	-0.039403405
183	0x3e1a51f0	0.15070319
184	0xbb946878	-0.004529055
185	0x3d86f3cb	0.065894686
186	0x3e04373d	0.12911697
187	0xbb3aa587	-0.002848001
188	0xb88d4f03	-6.738121e-05
189	0xbd9cd42b	-0.07657655
190	0xbde044ab	-0.109505974
191	0x3d9b9f3d	0.07598732
192	0xbdb53ba1	-0.08849264
193	0x3d90d9e9	0.07072813
194	0x3d39813e	0.04528927
195	0xbdbf7818	-0.09349078
196	0x3d76e655	0.060278255
197	0x3d325e56	0.043546997
198	0x3dd37969	0.103258915
199	0xbdb024f8	-0.08600801

lstm.bias_hh_l0 f4 [200]
0	0xbda329cd	-0.07966957
1	0x3bc6fd61	0.0060726856
2	0x3dc584b7	0.09644454
3	0x3dc656fd	0.096845604
4	0x3db9770d	0.0905591
5	0x3de116df	0.109906904
6	0x3e0420db	0.12903158
7	0xbcff92e0	-0.031197965
8	0xbca47774	-0.020076491
9	0xbcb6ab97	-0.022298617
10	0x3e255af5	0.16147979
11	0xbcf52ee2	-0.029929582
12	0xbda7efff	-0.082000725
13	0xbd9b805b	-0.07592841
14	0xbdbcbe95	-0.09216038
15	0x3de68831	0.11256445
16	0xbba39df0	-0.004993193
17	0x3d9ff683	0.0781069
18	0x3d140166	0.036134146
19	0x3c8c5eed	0.017135108
20	0xbdd0e975	-0.102007784
21	0xbb20097c	-0.0024419716
22	0x3c9e7ab3	0.019345617
23	0xbdb3d4bc	-0.0878081
24	0xbded7649	-0.11594827
25	0x3de6bd8c	0.11266622
26	0x3d030231	0.03198451
27	0x3cbc8513	0.023012673
28	0xbdd272ac	-0.10275778
29	0x3d1dc0e1	0.03851402
30	0xbe15dd29	-0.14635147
31	0xbdd105ce	-0.10206185
32	0xbe204c1a	-0.1565403
33	0xbd1bd515	-0.038045008
34	0x3d8ad40c	0.06778726
35	0x3e17268f	0.14760803
36	0x3d714a88	0.05890897
37	0x3d69b2f1	0.057055417
38	0x3e2a4127	0.16626416
39	0x3caa5cfc	0.020796292
40	0xbd8da494	-0.069161564
41	0x3d542ee6	0.05180254
42	0x3da98784	0.08277801
43	0x3e0ed0b1	0.13946797
44	0x3d192053	0.037384342
45	0xbd36a1a9	-0.044587765
46	0xba87d327	-0.0010362611
47	0xbdb3a947	-0.087725215
48	0xbd20ae15	-0.039228518
49	0xbbf3c8ab	-0.007439693
50	0xbda7aa45	-0.08186773
51	0xbe329546	-0.17439756
52	0x3e0309b9	0.12796678
53	0x3cd89f3b	0.026443115
54	0xbd195177	-0.037431207
55	0x3d5ed2e7	0.05440035
56	0x3e032d25	0.1281019
57	0xbdd719a0	-0.105029345
58	0x3e089236	0.13337025
59	0xbe0b0ac2	-0.13578323
60	0xbdef4a19	-0.11684055
61	0x3ca16dfc	0.019705765
62	0x3d38a13b	0.045075636
63	0xbd90910b	-0.07058915
64	0x3c89a631	0.016802879
65	0x3da34c99	0.07973594
66	0xbdb19328	-0.08670646
67	0x3dcbcee7	0.09951573
68	0xbcfe9323	-0.03107602
69	0xbd973035	-0.07382242
70	0x3da6ca70	0.08144081
71	0x3db9e965	0.090777196
72	0xbcf0f4d3	-0.029413616
73	0xbc1b4b38	-0.009478383
74	0xbd56a266	-0.05240097
75	0x3d9aa0ed	0.075502254
76	0xbc860e67	-0.01636429
77	0x3dd1105d	0.10208199
78	0x3e0f1d79	0.13976087
79	0xbdd7b76d	-0.105330326
80	0xbe17c9c6	-0.14823064
81	0xbdd0b15d	-0.10190079
82	0xbd74709c	-0.059677705
83	0x3c175ce7	0.009238458
84	0xbceb4975	-0.02872155
85	0x3d998429	0.07495911
86	0xbdaa4a24	-0.083149225
87	0xbdc5e3be	-0.09662579
88	0xbdb49259	-0.08816976
89	0x3debc13e	0.115114674
90	0xbd9e0100	-0.077150345
91	0xbb13c104	-0.0022545466
92	0xbd815081	-0.06314183
93	0xbddd4d50	-0.10805762
94	0xbca4294e	-0.020039227
95	0xbd135ff5	-0.035980184
96	0xbcc7d415	-0.02439312
97	0x3dfee82c	0.12446627
98	0x3d99f9a5	0.07518319
99	0xbd82e838	-0.063919485
100	0x3de51687	0.111859374
101	0xbcc86c6b	-0.02446576
102	0xbdc535c6	-0.09629397
103	0xbdff5e8d	-0.12469206
104	0xbdb77cb1	-0.0895933
105	0xbdbe9ef4	-0.09307662
106	0x3d572fb9	0.052535746
107	0xbdfc75cd	-0.12327156
108	0x3e027c65	0.12742765
109	0xbdd9df6d	-0.10638318
110	0xbac6a32a	-0.0015154828
111	0x3d679276	0.05653616
112	0x3c8d06fa	0.01721524
113	0xbdbccf30	-0.092192054
114	0xbd87d131	-0.06631697
115	0xbd898d7b	-0.067164384
116	0xbda5af04	-0.08090022
117	0xbdae285b	-0.08503791
118	0xbde1e495	-0.11029927
119	0xbe1189b0	-0.1421268
120	0xbd1af9a7	-0.037835743
121	0xbe0b88d6	-0.13626418
122	0xbdf5cfd8	-0.12002534
123	0x3c7eaf7a	0.015544767
124	0xbdf535f0	-0.119731784
125	0x3debcf76	0.115141794
126	0x3e033568	0.12813342
127	0x3d4b6f36	0.049666606
128	0xbd362ca1	-0.044476155
129	0x3e02c1f8	0.12769306
130	0xbd0f18af	-0.03493565
131	0x3de4a2e4	0.111638814
132	0xbdc3f0e7	-0.09567433
133	0x3df1a903	0.117998146
134	0x3dbc1e80	0.09185505
135	0x3e123686	0.14278612
136	0x3c598dac	0.013278406
137	0xbc94a3b0	-0.018144459
138	0xbdca848f	-0.09888565
139	0x3e00d300	0.1258049
140	0x3dba8351	0.09107078
141	0x3ca30300	0.019898891
142	0x3d156c54	0.036480263
143	0x3b0e31b6	0.002169711
144	0x3ccdc87c	0.025120012
145	0x3dbfadf5	0.093593515
146	0xbdd8f9f6	-0.10594551
147	0x3da0da4b	0.07854136
148	0x3db1ccde	0.086816534
149	0x3e0f7f59	0.14013423
150	0xbdf60428	-0.120125115
151	0xbcc64e77	-0.024207337
152	0xbcecbe68	-0.028899387
153	0xbb6cb38e	-0.0036117765
154	0xbd3758b6	-0.044762336
155	0xbc0537fe	-0.008131025
156	0xbd1e10b0	-0.038590133
157	0x3dbce771	0.092238314
158	0xbdce7be8	-0.10082227
159	0xbc0197fc	-0.007909771
160	0xbdc992ed	-0.09842477
161	0xbdd03ca8	-0.10167819
162	0xbdf1a619	-0.11799259
163	0xbdec1fe0	-0.11529517
164	0xbd05a037	-0.032623496
165	0xbd17e411	-0.037082735
166	0x3ca7c8aa	0.020481426
167	0x3de6382c	0.11241183
168	0xbdffff08	-0.12499815
169	0xbdc2de24	-0.09515026
170	0x3d7ff371	0.062488023
171	0xbdde1b06	-0.10844998
172	0x3de8eef3	0.11373701
173	0xbd6224b8	-0.0552108
174	0xbdcf1fa0	-0.10113454
175	0x3b9d8160	0.0048066825
176	0xbd9aedda	-0.07564898
177	0xbe010377	-0.12598978
178	0xbd209a17	-0.03920945
179	0x3d15a402	0.036533363
180	0x3b90a765	0.0044144862
181	0x3d6a1d55	0.05715688
182	0xbd980842	-0.0742345
183	0x3cf16f88	0.029472128
184	0xbc14cc3c	-0.009081896
185	0xbd0a6eea	-0.033797182
186	0x3dfc18d9	0.12309427
187	0xbde91506	-0.11380963
188	0xbc1df3b8	-0.009640627
189	0x3d1891e3	0.037248503
190	0xbded592e	-0.11589275
191	0x3d8c4cdb	0.068505965
192	0xbd7c6f62	-0.06162966
193	0x3e09dd65	0.13463362
194	0xbdf5aa10	-0.119953275
195	0xbcbbb530	-0.022913545
196	0x3deb378a	0.114852026
197	0xbd46ad16	-0.04850491
198	0xbd4b3e04	-0.04961969
199	0xbd995ce6	-0.07488422

linear.weight f4 [6, 50]
0	0x3ee0901b	0.43859944
1	0x3e4ab080	0.19793892
2	0x3d35a50b	0.04434685
3	0x3d2227a7	0.039588597
4	0x3ee8dc3d	0.45480528
5	0x3f3a78cb	0.72840565
6	0x3f57cccd	0.84296876
7	0x3eb51f2b	0.35375342
8	0xbf666a70	-0.9000616
9	0x3e2304a5	0.1591974
10	0xbf21b5fc	-0.6316831
11	0x3f4bf107	0.79664654
12	0xbe8ac224	-0.27101243
13	0x3ebdb66a	0.37053233
14	0x3eda3bba	0.42623693
15	0x3f150b52	0.582204
16	0x3e9e642d	0.30935803
17	0xbe51d6d8	-0.20492113
18	0xbec80b23	-0.39070997
19	0x3e303c22	0.17210439
20	0x3eb27700	0.34856415
21	0x3f2c6fe8	0.67358255
22	0xbf6e5e75	-0.9311288
23	0xbf8f648e	-1.1202562
24	0x3ebebb75	0.37252393
25	0x3dc41933	0.09575119
26	0xbd4da21f	-0.05020344
27	0xbf3ebd6b	-0.7450778
28	0x3e8fa17e	0.28052896
29	0x3c71e052	0.014762955
30	0xbfcd1ff3	-1.6025375
31	0x3df80791	0.12110818
32	0xbf136cfa	-0.5758816
33	0xbf29146e	-0.660468
34	0xbcafa910	-0.02144292
35	0x3fa263cd	1.2686707
36	0x3e81ea0c	0.25373876
37	0xbf9295c4	-1.1451955
38	0x3f5cfcb2	0.8632308
39	0xbe9d47ca	-0.30718833
40	0x3e7c4da6	0.24638996
41	0x3f8f070d	1.1174027
42	0x3d227093	0.03965814
43	0xbf33aaff	-0.70182794
44	0xbeeb8aae	-0.46004242
45	0x3f327235	0.69705516
46	0xbfc5b59f	-1.5446051
47	0x3efa818f	0.4892697
48	0xbe6709a0	-0.22562265
49	0x3d1165f2	0.035497613
50	0xbeae5334	-0.34047854
51	0x3e996083	0.29956445
52	0xbd04b80a	-0.032402076
53	0xbf74f5ed	-0.9568775
54	0x3e648f14	0.22320205
55	0xbcee2bc5	-0.029073605
56	0x3f15dfda	0.58544695
57	0x3e9848f3	0.29743156
58	0xbfabe6e7	-1.3429841
59	0x3dd7c2b3	0.10535183
60	0x3f1cf496	0.6131071
61	0x3ea6d083	0.32580957
62	0xbe7e8188	-0.248541
63	0xbf429afb	-0.7601773
64	0x3f2b44a9	0.6690164
65	0xbf1b253d	-0.60603696
66	0xbf3bcf0a	-0.7336279
67	0xbedb0b18	-0.427819
68	0xbe5efffb	-0.21777336
69	0xbdd73672	-0.105084315
70	0xbf12a863	-0.5728819
71	0x3f4156b4	0.75522923
72	0x3e95ed5a	0.29282647
73	0xbf83e276	-1.0303485
74	0x3eae4905	0.34040084
75	0xbf297aa0	-0.66202736
76	0xbd977150	-0.073946595
77	0xbeb9e37d	-0.36306372
78	0xbea64ead	-0.324819
79	0x3d599c3a	0.053127505
80	0x3f2e27d8	0.68029547
81	0xbc1d3995	-0.009596248
82	0xbe6716a7	-0.22567235
83	0x3f942490	1.1573658
84	0xbe77ed91	-0.24211718
85	0x3faa4efe	1.3305357
86	0xbf5531ba	-0.83279
87	0xbf7bb025	-0.9831565
88	0xbd784343	-0.06061102
89	0xbf3a0789	-0.7266775
90	0xbf131e7f	-0.5746841
91	0xbe565b22	-0.20933202
92	0x3e53ccbd	0.2068357
93	0xbea1d923	-0.31610975
94	0xbf31b1b5	-0.69411784
95	0x3ee7d71f	0.45281312
96	0x3fa1563e	1.2604444
97	0x3e25f5dc	0.16207069
98	0xbdfb61c0	-0.12274504
99	0x3e63b12a	0.22235551
100	0x3f9fd7db	1.2487749
101	0xbaa37378	-0.0012470325
102	0xbcc22282	-0.023698095
103	0x3eaff650	0.3436761
104	0x3f137033	0.5759308
105	0x3e94d351	0.29067472
106	0xbeef1ebd	-0.4670314
107	0xbeaa5efd	-0.33275595
108	0x3f9f9a5e	1.2468984
109	0xbd981f10	-0.074278
110	0xbd94ced5	-0.072660126
111	0x3f699c37	0.9125399
112	0x3e96da31	0.29463342
113	0x3de3108e	0.11087142
114	0xbf4fe042	-0.81201565
115	0x3e8d025d	0.27540866
116	0x3f1329a6	0.57485425
117	0x3ef4f69a	0.47844392
118	0x3e92d7a5	0.2868015
119	0xbf3f250e	-0.74665916
120	0x3f4be9ab	0.79653424
121	0xbf22b617	-0.635591
122	0xbfa18081	-1.2617341
123	0x3f83135f	1.0240287
124	0x3e8becc1	0.27329066
125	0x3e9bcb5c	0.30428588
126	0xbc0c9582	-0.008580567
127	0x3dd1c1ec	0.10242066
128	0x3cd45252	0.02591816
129	0xbd1388b5	-0.036019046
130	0x3f72364f	0.9461412
131	0xbe0a611b	-0.13513605
132	0xbf71b552	-0.944173
133	0x3f6581ab	0.8965098
134	0x3f06d07c	0.5266187
135	0xbf86e07f	-1.0537261
136	0xbefea798	-0.4973724
137	0x3f4f9574	0.8108742
138	0x3e890d9f	0.26768205
139	0xbee87326	-0.4540035
140	0xbdb3c2d2	-0.087773934
141	0x3f5ee7f4	0.8707268
142	0x3d168444	0.036747232
143	0x3f7f118e	0.9963616
144	0x3f6b4b38	0.9191165
145	0x3e6db7f6	0.23214707
146	0x3fa332ae	1.2749841
147	0x3d7a08a1	0.061043385
148	0x3e3a4f30	0.1819427
149	0x3d9e0e85	0.07717613
150	0xbfa89049	-1.3169032
151	0xbd966c07	-0.07344823
152	0xbd9c4dee	-0.076320514
153	0xbefb8988	-0.49128366
154	0xbf54c5bf	-0.83114237
155	0xbf9d0e9b	-1.2270082
156	0xbf22de9f	-0.6362094
157	0x3e046447	0.12928878
158	0xbf152b6e	-0.58269393
159	0x3e0e7f39	0.13915719
160	0x3f63bfff	0.8896484
161	0xbf84c972	-1.0373976
162	0xbe97b798	-0.29632258
163	0x3db1c30a	0.08679779
164	0x3e94bf87	0.29052374
165	0xbe5c4a95	-0.21512826
166	0xbddbc7bd	-0.107314564
167	0x3eb62a7d	0.3557929
168	0xbe9b5c94	-0.3034407
169	0xbe82b64a	-0.255297
170	0x3f037df5	0.5136407
171	0x3f9f1805	1.2429205
172	0xbf6ec940	-0.93275833
173	0xbf7e1884	-0.9925616
174	0x3eb6c63a	0.3569811
175	0xbf096a2e	-0.5367764
176	0x3de28685	0.11060814
177	0x3f12c4f0	0.5733175
178	0x3edabb31	0.4272094
179	0x3dcee914	0.1010305
180	0x3f72e430	0.94879436
181	0xbdb4f803	-0.08836367
182	0x3f8452c4	1.0337758
183	0xbf716480	-0.94293976
184	0xbf374caa	-0.71601355
185	0xbf9f7b1c	-1.2459445
186	0x3e841b9e	0.2580232
187	0xbeda581b	-0.42645344
188	0xbfa94fad	-1.322744
189	0x3f022bc1	0.50848013
190	0xbdedc6ea	-0.116102055
191	0xbf423321	-0.75859267
192	0x3dc013a9	0.0937875
193	0x3f716f41	0.94310385
194	0xbf72406b	-0.94629544
195	0xbf0090e0	-0.5022106
196	0x3f76b178	0.96364546
197	0x3f434117	0.76271194
198	0xbdb1170c	-0.08646974
199	0x3dad6415	0.08466355
200	0x3ee1137b	0.43960175
201	0xbece1ed5	-0.40257898
202	0xbe00ac43	-0.12565713
203	0x3f6e7a5f	0.93155473
204	0xbf77916c	-0.9670627
205	0x3f36ef4c	0.7145889
206	0xbf2015ae	-0.6253308
207	0x3cc492d9	0.023995804
208	0x3fa48744	1.285378
209	0xbeaa1713	-0.3322073
210	0xbf397634	-0.7244599
211	0xbf9f9e94	-1.2470269
212	0x3e8712b4	0.26381457
213	0x3f073437	0.5281405
214	0x3ec928fa	0.39289075
215	0xbed00277	-0.4062688
216	0x3e11768f	0.14205383
217	0xbd355f31	-0.044280235
218	0x3d1a4095	0.037659246
219	0x3f1b0cc0	0.6056633
220	0xbf1ada71	-0.60489565
221	0x3de20b4d	0.11037312
222	0x3f9b6949	1.2141505
223	0x3e93f80f	0.2890019
224	0xbeafa4fa	-0.34305555
225	0x3f0775bb	0.5291402
226	0xbd25a84e	-0.04044371
227	0x3e99aa93	0.3001295
228	0x3e98e7c6	0.2986433
229	0x3cac25df	0.021014152
230	0xbfbbb060	-1.46632
231	0x3da68f42	0.08132793
232	0x3f4095a2	0.7522832
233	0xbf41c435	-0.75690013
234	0x3d7d4bba	0.061839797
235	0xbf4fa94d	-0.8111771
236	0x3de87761	0.11350895
237	0x3f877fb1	1.0585843
238	0xbd4a50af	-0.049393352
239	0x3f92fc2d	1.1483208
240	0x3f84ddfe	1.0380247
241	0xbfa9863c	-1.324409
242	0xbe8f291d	-0.27961054
243	0x3eab5198	0.3346069
244	0x3f10fd9e	0.5663699
245	0xbf33f45b	-0.7029473
246	0xbf98e318	-1.1944304
247	0xbfa32253	-1.274485
248	0xbde4d262	-0.1117294
249	0xbea0e6c7	-0.3142607
250	0x3e4b065d	0.19826646
251	0xbca3df34	-0.020003892
252	0x3d098781	0.033576492
253	0x3f2dfad6	0.6796087
254	0x3f9fce4d	1.2484833
255	0xbf10428c	-0.5635154

linear.bias f4 [6]
0	0xbe26677c	-0.16250414
1	0xbe8ba30c	-0.27272832
2	0xbd1fb125	-0.038987298
3	0xbda595a8	-0.08085185
4	0x3e73d26a	0.23810735
5	0x3d365e1d	0.044523347

exp_avg f4 [200, 34]
0	0xbd5871f6	-0.052843057
1	0xbc932e1c	-0.017966323
2	0x34c4f725	3.6687666e-07
3	0x34253453	1.5385858e-07
4	0xbd586a7f	-0.052835938
5	0xbc91ef6e	-0.017814364
6	0x3d028741	0.03186727
7	0x3ce86405	0.028368006
8	0xbd3678d1	-0.044548813
9	0xba6b6c50	-0.00089806784
10	0xbd3f5c6d	-0.046719003
11	0xbc0d302c	-0.008617442
12	0xbd3d35b3	-0.04619379
13	0xbbf4aaaf	-0.007466636
14	0xbd828d52	-0.06374611
15	0xbbe26ae9	-0.0069097173
16	0xbd13b39a	-0.036059953
17	0x3bc1ae91	0.0059107025
18	0xbd994f83	-0.07485869
19	0x3c5bd117	0.01341655
20	0xbcca59c8	-0.024701014
21	0x3c5e23d2	0.013558345
22	0xbd3b6eb2	-0.045759864
23	0xbcb93eac	-0.022612892
24	0xbd33f952	-0.043938942
25	0xbca95f69	-0.020675378
26	0xbd245801	-0.04012299
27	0xbd0c2b24	-0.03422083
28	0xbd4ebb03	-0.050471317
29	0xbd036f99	-0.03208885
30	0xbcf8efff	-0.030387877
31	0xbd2eaa9d	-0.04264318
32	0xbd5fd491	-0.05464608
33	0xbd1d1d26	-0.038357876
34	0x296eba32	5.3008115e-14
35	0x290aee39	3.084878e-14
36	0x296f7a99	5.3174997e-14
37	0x29097cc6	3.0528335e-14
38	0x296d5200	5.2695695e-14
39	0x2908bf37	3.036392e-14
40	0x28d59f41	2.3716816e-14
41	0x28c79939	2.2159888e-14
42	0x296d2034	5.2652503e-14
43	0x2909d22a	3.06024e-14
44	0x28eec918	2.6510518e-14
45	0x28c18382	2.1484337e-14
46	0x29674308	5.1350444e-14
47	0x290fda26	3.1941592e-14
48	0xa8e2cf93	-2.5181061e-14
49	0xa836f0c8	-1.0155241e-14
50	0x80000004	-6e-45
51	0x80000004	-6e-45
52	0xa8f92829	-2.766197e-14
53	0xa80b3f74	-7.729809e-15
54	0x00000000	0.0
55	0x00000000	0.0
56	0x25fadc7c	4.3517493e-16
57	0x261a85c2	5.361076e-16
58	0x26199d29	5.329553e-16
59	0x2621c8d2	5.613026e-16
60	0x00000000	0.0
61	0x00000000	0.0
62	0x00000000	0.0
63	0x00000000	0.0
64	0x00000000	0.0
65	0x00000000	0.0
66	0x00000000	0.0
67	0x00000000	0.0
68	0x00000000	0.0
69	0x00000000	0.0
70	0x00000000	0.0
71	0x00000000	0.0
72	0x00000000	0.0
73	0x00000000	0.0
74	0x00000000	0.0
75	0x00000000	0.0
76	0x1894e4b6	3.8488042e-24
77	0x17a3a04f	1.0574096e-24
78	0x13b45a5a	4.552748e-27
79	0x13093b07	1.7320934e-27
80	0x1855a501	2.761291e-24
81	0x1751cb72	6.7788326e-25
82	0x13b8c2ea	4.664033e-27
83	0x133be85f	2.3717286e-27
84	0x18863b0e	3.469782e-24
85	0x17478dd2	6.447937e-25
86	0x13bc94b6	4.7604512e-27
87	0x13649c4a	2.8854702e-27
88	0x189ebb84	4.1031385e-24
89	0x1740db44	6.23153e-25
90	0x00000000	0.0
91	0x00000000	0.0
92	0x00000000	0.0
93	0x00000000	0.0
94	0x00000000	0.0
95	0x00000000	0.0
96	0x00000000	0.0
97	0x00000000	0.0
98	0x00000000	0.0
99	0x00000000	0.0
100	0x00000000	0.0
101	0x00000000	0.0
102	0x00000000	0.0
103	0x00000000	0.0
104	0x00000000	0.0
105	0x00000000	0.0
106	0x00000000	0.0
107	0x00000000	0.0
108	0x00000000	0.0
109	0x00000000	0.0
110	0x00000000	0.0
111	0x00000000	0.0
112	0x00000000	0.0
113	0x00000000	0.0
114	0x00000000	0.0
115	0x00000000	0.0
116	0x00000000	0.0
117	0x00000000	0.0
118	0x00000000	0.0
119	0x00000000	0.0
120	0x00000000	0.0
121	0x00000000	0.0
122	0x00000000	0.0
123	0x00000000	0.0
124	0x00000000	0.0
125	0x00000000	0.0
126	0x00000000	0.0
127	0x00000000	0.0
128	0x00000000	0.0
129	0x00000000	0.0
130	0x00000000	0.0
131	0x00000000	0.0
132	0x00000000	0.0
133	0x00000000	0.0
134	0x00000000	0.0
135	0x00000000	0.0
136	0x3d0e14a6	0.03468766
137	0x3c81a1be	0.015824195
138	0x3d1891be	0.037248366
139	0x3c85cd20	0.016333163
140	0x3d137b31	0.036006156
141	0x3c849807	0.016185774
142	0xbc04531e	-0.008076457
143	0xbac2e55a	-0.0014869377
144	0xbd3ab853	-0.04558594
145	0xbc8d91ef	-0.0172815
146	0xbb6de919	-0.0036302267
147	0xbb47c6d5	-0.0030483503
148	0xbc84e2f1	-0.016221495
149	0xbb9747f6	-0.0046167327
150	0x3ce19b50	0.02753988
151	0x3c30febc	0.010802921
152	0xbce7805f	-0.028259454
153	0xbbf22c4c	-0.0073905345
154	0x3d464924	0.048409596
155	0x3c933e21	0.017973961
156	0xbcf9fbd1	-0.030515583
157	0xbbaad269	-0.005213071
158	0xbb3aacf6	-0.002848444
159	0xbbe0f9de	-0.006865724
160	0xbc5819a7	-0.01318971
161	0xbbe59193	-0.007005879
162	0xbbfdcc1a	-0.007745278
163	0xbbe067b3	-0.0068482994
164	0xbc8ecbff	-0.017431257
165	0xbc01190b	-0.007879506
166	0xbaca5f6b	-0.0015439814
167	0xbc45af91	-0.012065784
168	0xbc51bcc7	-0.012801356
169	0xbc77821e	-0.015106706
170	0x00000000	0.0
171	0x00000000	0.0
172	0x00000000	0.0
173	0x00000000	0.0
174	0x00000000	0.0
175	0x00000000	0.0
176	0x2df050c7	2.7320713e-11
177	0x2d1ca5f7	8.904425e-12
178	0x00000000	0.0
179	0x00000000	0.0
180	0x2dea92e2	2.6667949e-11
181	0x2d46a341	1.1291247e-11
182	0x00000000	0.0
183	0x00000000	0.0
184	0x2dd097f0	2.3714336e-11
185	0x2d444a88	1.1157859e-11
186	0x00000000	0.0
187	0x00000000	0.0
188	0x2de07d96	2.5521623e-11
189	0x2d1b77fe	8.8373735e-12
190	0x00000000	0.0
191	0x00000000	0.0
192	0x80000004	-6e-45
193	0x80000004	-6e-45
194	0x80000004	-6e-45
195	0x80000004	-6e-45
196	0x80000004	-6e-45
197	0x80000004	-6e-45
198	0x80000004	-6e-45
199	0x80000004	-6e-45
200	0x80000004	-6e-45
201	0x80000004	-6e-45
202	0x80000004	-6e-45
203	0x80000004	-6e-45
204	0xb0da6d45	-1.5892644e-09
205	0xb01842d0	-5.5392224e-10
206	0xb121be46	-2.3536741e-09
207	0xb07ddee9	-9.235764e-10
208	0xb0d65c94	-1.5596862e-09
209	0xb014e9f3	-5.417455e-10
210	0xbd1d604e	-0.03842192
211	0xbc9b4ce0	-0.018957555
212	0xbd2f1f4e	-0.042754464
213	0xbc8d3d77	-0.017241223
214	0xbd16dc91	-0.036831442
215	0xbcb358fa	-0.021893013
216	0xbd309626	-0.043111943
217	0xbca1ab3f	-0.019734977
218	0xbd109999	-0.035302732
219	0xbce536f0	-0.027980298
220	0xbd3a763c	-0.045522913
221	0xbccd95db	-0.02509587
222	0xbd089ea6	-0.033354424
223	0xbce800df	-0.028320728
224	0xbd2a3481	-0.041553978
225	0xbcdb51de	-0.026772436
226	0xbd2014b4	-0.039082244
227	0xbcfcf775	-0.030879715
228	0xbd310fc5	-0.04322793
229	0xbcfdfcc2	-0.031004313
230	0xbd36e3a0	-0.044650674
231	0xbd173277	-0.03691336
232	0xbd39b89a	-0.045342065
233	0xbd1f6017	-0.038909998
234	0xbd3e3930	-0.046441257
235	0xbd3f4aa1	-0.04670203
236	0xbd20c3ef	-0.039249357
237	0xbd4d4a3d	-0.050119627
238	0x2dbe90ea	2.1664854e-11
239	0x2d5dce0e	1.2608149e-11
240	0x2dbf2a80	2.173306e-11
241	0x2d5b8039	1.247718e-11
242	0x2dbd7180	2.1537216e-11
243	0x2d5a5196	1.2409981e-11
244	0x2dbc593a	2.141275e-11
245	0x2d5c257a	1.2513874e-11
246	0x2dbb222d	2.1274616e-11
247	0x2d5a5b62	1.2412156e-11
248	0x2dbcda57	2.1470088e-11
249	0x2d670bc8	1.3133446e-11
250	0xaf8b43db	-2.5332167e-10
251	0xaf2732c2	-1.5206594e-10
252	0xaac48f96	-3.4916227e-13
253	0xaa985cd4	-2.7065036e-13
254	0xaf919b83	-2.6485844e-10
255	0xaf61257b	-2.0476947e-10

exp_avg_sq f4 [200, 34]
0	0x3d33f734	0.043936923
1	0x3bd63743	0.0065373494
2	0x2b1db989	5.6035087e-13
3	0x29c48693	8.7274934e-14
4	0x3d30d201	0.043169025
5	0x3bcd137f	0.0062584276
6	0x3e0ffc24	0.14061028
7	0x3cee5703	0.029094225
8	0x3e33e75f	0.1756873
9	0x3cf4a43b	0.029863467
10	0x3e137c26	0.14402828
11	0x3d29e0f8	0.041474313
12	0x3e3b3ff8	0.18286121
13	0x3d2ffb1a	0.04296408
14	0x3dee788c	0.11644086
15	0x3d3a2789	0.04544786
16	0x3e584815	0.21121247
17	0x3d43f1f9	0.047838185
18	0x3dc352fe	0.09537314
19	0x3d26071f	0.040534135
20	0x3e678fe6	0.22613487
21	0x3d3d37e3	0.046195876
22	0x3e170e0d	0.14751454
23	0x3dcc0292	0.09961428
24	0x3e311f94	0.17297202
25	0x3dcf6916	0.101274654
26	0x3e18c3d6	0.14918455
27	0x3e24946f	0.16072248
28	0x3e318f68	0.17339861
29	0x3e269aeb	0.16270034
30	0x3e162285	0.14661606
31	0x3e679fb4	0.22619516
32	0x3e2f4592	0.17116383
33	0x3e6c2447	0.23060714
34	0x15855b15	5.3861974e-26
35	0x14b4a8f5	1.8241997e-26
36	0x1586325e	5.4201634e-26
37	0x14b0ed19	1.7864977e-26
38	0x1583ca17	5.322932e-26
39	0x14af0697	1.7673084e-26
40	0x1902f8a6	6.771057e-24
41	0x17453659	6.372273e-25
42	0x1f0bf29c	2.9635077e-20
43	0x1da9b92c	4.492539e-21
44	0x1ea79546	1.7743551e-20
45	0x1dbcacd8	4.99419e-21
46	0x1f07856a	2.869772e-20
47	0x1e08f616	7.2506694e-21
48	0x18c3cccb	5.0613107e-24
49	0x1780f03a	8.332448e-25
50	0x000001f4	7e-43
51	0x000001f4	7e-43
52	0x18ebbc2f	6.0936093e-24
53	0x1719a2ad	4.964229e-25
54	0x00000000	0.0
55	0x00000000	0.0
56	0x1e93a211	1.563126e-20
57	0x1ee00ec6	2.3723033e-20
58	0x1edd6e3d	2.3444879e-20
59	0x1ef59ca8	2.6005176e-20
60	0x00000000	0.0
61	0x00000000	0.0
62	0x00000000	0.0
63	0x00000000	0.0
64	0x00000000	0.0
65	0x00000000	0.0
66	0x00000000	0.0
67	0x00000000	0.0
68	0x00000000	0.0
69	0x00000000	0.0
70	0x00000000	0.0
71	0x00000000	0.0
72	0x00000000	0.0
73	0x00000000	0.0
74	0x00000000	0.0
75	0x00000000	0.0
76	0x000001f4	7e-43
77	0x000001f4	7e-43
78	0x00000000	0.0
79	0x00000000	0.0
80	0x000001f4	7e-43
81	0x000001f4	7e-43
82	0x00000000	0.0
83	0x00000000	0.0
84	0x000001f4	7e-43
85	0x000001f4	7e-43
86	0x00000000	0.0
87	0x00000000	0.0
88	0x000001f4	7e-43
89	0x000001f4	7e-43
90	0x00000000	0.0
91	0x00000000	0.0
92	0x00000000	0.0
93	0x00000000	0.0
94	0x00000000	0.0
95	0x00000000	0.0
96	0x00000000	0.0
97	0x00000000	0.0
98	0x00000000	0.0
99	0x00000000	0.0
100	0x00000000	0.0
101	0x00000000	0.0
102	0x00000000	0.0
103	0x00000000	0.0
104	0x00000000	0.0
105	0x00000000	0.0
106	0x00000000	0.0
107	0x00000000	0.0
108	0x00000000	0.0
109	0x00000000	0.0
110	0x00000000	0.0
111	0x00000000	0.0
112	0x00000000	0.0
113	0x00000000	0.0
114	0x00000000	0.0
115	0x00000000	0.0
116	0x00000000	0.0
117	0x00000000	0.0
118	0x00000000	0.0
119	0x00000000	0.0
120	0x00000000	0.0
121	0x00000000	0.0
122	0x00000000	0.0
123	0x00000000	0.0
124	0x00000000	0.0
125	0x00000000	0.0
126	0x00000000	0.0
127	0x00000000	0.0
128	0x00000000	0.0
129	0x00000000	0.0
130	0x00000000	0.0
131	0x00000000	0.0
132	0x00000000	0.0
133	0x00000000	0.0
134	0x00000000	0.0
135	0x00000000	0.0
136	0x3d13f7dc	0.03612505
137	0x3c0d7bd1	0.008635477
138	0x3d1ac2df	0.0377835
139	0x3c032797	0.008005044
140	0x3d0fcdcb	0.03510837
141	0x3c02415f	0.007950156
142	0x3d646c26	0.0557672
143	0x3c38713d	0.011257467
144	0x3cabe9fd	0.020985598
145	0x3b871439	0.004122284
146	0x3d73d24c	0.059526727
147	0x3c9337ad	0.017970884
148	0x3d477db1	0.048703853
149	0x3c90b250	0.017663151
150	0x3d6c0607	0.057622936
151	0x3cbe31ec	0.023217164
152	0x3d3f9f0e	0.046782546
153	0x3ccb7915	0.02483801
154	0x3d50ec44	0.05100657
155	0x3cca6c5f	0.024709878
156	0x3d2d6ab7	0.0423381
157	0x3cd4de34	0.025984861
158	0x3d68b198	0.05680999
159	0x3d249762	0.040183432
160	0x3d4cb3e2	0.049976237
161	0x3d242267	0.04007187
162	0x3d6c5cfb	0.05770586
163	0x3d837896	0.06419484
164	0x3d5366c4	0.051611677
165	0x3d831893	0.064011715
166	0x3d73fa7d	0.059565056
167	0x3db88e25	0.09011487
168	0x3d592850	0.05301696
169	0x3db6194d	0.088915445
170	0x00000000	0.0
171	0x00000000	0.0
172	0x00000000	0.0
173	0x00000000	0.0
174	0x00000000	0.0
175	0x00000000	0.0
176	0x26a9617e	1.1753156e-15
177	0x24d69847	9.3065674e-17
178	0x00000000	0.0
179	0x00000000	0.0
180	0x269f3a35	1.1048618e-15
181	0x253867a8	1.5994576e-16
182	0x00000000	0.0
183	0x00000000	0.0
184	0x267c5741	8.7548314e-16
185	0x252d55bd	1.5034407e-16
186	0x00000000	0.0
187	0x00000000	0.0
188	0x269b7a84	1.0788493e-15
189	0x24b5a2af	7.8771834e-17
190	0x00000000	0.0
191	0x00000000	0.0
192	0x1296a24c	9.50634e-28
193	0x11d5f6d3	3.3757592e-28
194	0x12825175	8.224234e-28
195	0x11d5e54b	3.3746787e-28
196	0x128b530e	8.792608e-28
197	0x123c7bff	5.9475177e-28
198	0x12772baa	7.7993278e-28
199	0x123c7fa5	5.9479674e-28
200	0x128b4bf1	8.790854e-28
201	0x128a4cca	8.727954e-28
202	0x126dcd53	7.5037095e-28
203	0x129271bc	9.241933e-28
204	0x2a307f24	1.5676051e-13
205	0x29009159	2.854778e-14
206	0x29b4c309	8.027439e-14
207	0x28602070	1.2441532e-14
208	0x2a2a45bc	1.5123227e-13
209	0x28f83f55	2.7560997e-14
210	0x3ddc4de6	0.107570454
211	0x3ca60810	0.020267516
212	0x3e030025	0.12793024
213	0x3ca6a61e	0.020342883
214	0x3dc90564	0.09815481
215	0x3d05c98d	0.032662917
216	0x3e0c0b49	0.1367618
217	0x3d07002f	0.03295916
218	0x3db9de91	0.09075654
219	0x3d5ae52e	0.05344122
220	0x3e140f98	0.14459074
221	0x3d628d71	0.05531067
222	0x3db74c75	0.0895013
223	0x3d8ebf7e	0.06970118
224	0x3e0f2cbe	0.13981912
225	0x3d8bc9b1	0.06825579
226	0x3dd58765	0.10426215
227	0x3d9da27b	0.07697006
228	0x3e03f452	0.1288617
229	0x3d9e6a18	0.077350795
230	0x3ddd7127	0.10812598
231	0x3dfdaa2c	0.12385973
232	0x3e04eed7	0.12981735
233	0x3dff3328	0.12460929
234	0x3ddb9914	0.10722557
235	0x3e37891d	0.17923398
236	0x3e018e72	0.12651995
237	0x3e396298	0.18104017
238	0x219428f0	1.0039706e-18
239	0x206a0eab	1.9825424e-19
240	0x219a464b	1.0454052e-18
241	0x205ead8a	1.8861551e-19
242	0x2192e1d8	9.953125e-19
243	0x205edf3a	1.8877991e-19
244	0x21a6c5e9	1.1300984e-18
245	0x2071d384	2.0483479e-19
246	0x20e3718c	3.8530435e-19
247	0x201bf09e	1.3208624e-19
248	0x21b20874	1.2063987e-18
249	0x20a7ced6	2.8427773e-19
250	0x28709103	1.3354121e-14
251	0x27cca546	5.6800564e-15
252	0x21855ddd	9.037276e-19
253	0x2094c88b	2.5204883e-19
254	0x284c939d	1.1356283e-14
255	0x27ee15c3	6.6081864e-15

exp_avg f4 [200, 50]
0	0xb825a714	-3.949467e-05
1	0x39035b75	0.00012527204
2	0x1015fcdb	2.957986e-29
3	0x392e0327	0.00016595107
4	0xb85df90a	-5.292244e-05
5	0x396834c2	0.00022144898
6	0xb9b1f25e	-0.00033940648
7	0xb091ff13	-1.0622635e-09
8	0x38a91522	8.062484e-05
9	0xb1237cb7	-2.3790514e-09
10	0x38c82122	9.5429146e-05
11	0xba335708	-0.0006841277
12	0x30c2e920	1.4181616e-09
13	0x36365bad	2.7173476e-06
14	0x39994c04	0.0002923907
15	0x3241bc91	1.1276954e-08
16	0xb96ee44a	-0.00022782493
17	0x307650bc	8.960901e-10
18	0x3092059d	1.0624494e-09
19	0x37faa9ca	2.9881387e-05
20	0x36d8089e	6.438305e-06
21	0xb74d221e	-1.2226896e-05
22	0x372114bd	9.601176e-06
23	0x391bf3ff	0.00014872848
24	0xb0f49cc8	-1.7797896e-09
25	0xb80f501e	-3.416847e-05
26	0x13a8da38	4.2624343e-27
27	0xb8877158	-6.4584136e-05
28	0x2e92a00e	6.667743e-11
29	0xace329ca	-6.4563676e-12
30	0xb9952b30	-0.00028451672
31	0x9fa7210e	-7.0781935e-20
32	0xb87bdc55	-6.0048264e-05
33	0x390c661e	0.00013389482
34	0x393bff95	0.00017928921
35	0xb97f3607	-0.00024338822
36	0x359ab403	1.1526284e-06
37	0x394572b7	0.00018830119
38	0xb90b7992	-0.00013301361
39	0x38da9815	0.000104233775
40	0x38143d4b	3.5343033e-05
41	0xb98b1337	-0.00026526462
42	0x9dc0ce02	-5.1034984e-21
43	0x38bc4bca	8.9786554e-05
44	0xb7bf689c	-2.2817687e-05
45	0x30a2188e	1.179403e-09
46	0xb978cd35	-0.00023727569
47	0xb963c9ea	-0.00021723626
48	0x30b8d5ba	1.3448507e-09
49	0x38881fe3	6.490925e-05
50	0xa50e5aee	-1.2347345e-16
51	0xa47e9a97	-5.5208413e-17
52	0x00000000	0.0
53	0xa5769f56	-2.1391084e-16
54	0x24d5f202	9.2784e-17
55	0x250e18be	1.232492e-16
56	0x1b5c732d	1.8235189e-22
57	0x80000004	-6e-45
58	0xa1a0536a	-1.0864101e-18
59	0x00000000	0.0
60	0x24ce71df	8.9531164e-17
61	0xa570e2e0	-2.089355e-16
62	0x00000000	0.0
63	0x00000000	0.0
64	0xa4ceb0e2	-8.963791e-17
65	0x00000000	0.0
66	0xa5684e1a	-2.0149254e-16
67	0x00000000	0.0
68	0x00000000	0.0
69	0xa44bf05d	-4.4222204e-17
70	0x80000004	-6e-45
71	0x102de1b3	3.4292107e-29
72	0xa4d1db2c	-9.101059e-17
73	0xa081e0cc	-2.2002208e-19
74	0x80ce9eca	-1.8975075e-38
75	0x23edef5f	2.5796969e-17
76	0x00000000	0.0
77	0x250aa8c8	1.2026777e-16
78	0x8000c0af	-6.9122e-41
79	0x00000000	0.0
80	0x247db22a	5.501154e-17
81	0x00000000	0.0
82	0x2419c143	3.3340286e-17
83	0x250a025a	1.1970389e-16
84	0xa3efa714	-2.5983192e-17
85	0x1fa76a55	7.090316e-20
86	0x056210fb	1.0629588e-35
87	0xa419726c	-3.3273506e-17
88	0x250ec397	1.2382805e-16
89	0xa4d1bb16	-9.095624e-17
90	0xa499c848	-6.669246e-17
91	0x213f375e	6.4786595e-19
92	0x00000000	0.0
93	0xa50e17ff	-1.2324667e-16
94	0x24db16f3	9.501499e-17
95	0x00000000	0.0
96	0x250edf06	1.23921e-16
97	0xa4cb3049	-8.8119015e-17
98	0x00000000	0.0
99	0xa41b8112	-3.3719594e-17
100	0x146021cc	1.1315775e-26
101	0x93ab6acc	-4.327178e-27
102	0x00000000	0.0
103	0x945d7bda	-1.1182074e-26
104	0x101497a7	2.9304682e-29
105	0x89abaacd	-4.1327373e-33
106	0x84ae23f3	-4.0940218e-36
107	0x00000000	0.0
108	0x12d85a8f	1.3653841e-27
109	0x00000000	0.0
110	0x941ec21e	-8.015244e-27
111	0x140b2f88	7.0270805e-27
112	0x00000000	0.0
113	0x00000000	0.0
114	0x939936e0	-3.867674e-27
115	0x04935bd3	3.464386e-36
116	0x13b8682b	4.6550848e-27
117	0x00000000	0.0
118	0x00000000	0.0
119	0x13f26327	6.118716e-27
120	0x00000004	6e-45
121	0x13836d11	3.3176597e-27
122	0x09dfae6e	5.384933e-33
123	0x93833ab9	-3.3126954e-27
124	0x00000000	0.0
125	0x13d3ef05	5.349958e-27
126	0x00000000	0.0
127	0x0f15eb90	7.391635e-30
128	0x00000000	0.0
129	0x00000000	0.0
130	0x140ad151	7.0085e-27
131	0x00000000	0.0
132	0x1403191e	6.618763e-27
133	0x92eaee5a	-1.4826234e-27
134	0x14704f61	1.2132558e-26
135	0x90a48640	-6.489344e-29
136	0x1329d282	2.1434587e-27
137	0x10d0bea9	8.233529e-29
138	0x0f62797d	1.1166058e-29
139	0x14609d91	1.13401844e-26
140	0x13f11c41	6.0864814e-27
141	0x938304f4	-3.3073933e-27
142	0x00000000	0.0
143	0x04f458da	5.744572e-36
144	0x9270098f	-7.574243e-28
145	0x8490fab8	-3.4084486e-36
146	0x939e3ce7	-3.994486e-27
147	0x140b4504	7.0313175e-27
148	0x00000000	0.0
149	0x940b2f7f	-7.0270736e-27
150	0x00000000	0.0
151	0x00000000	0.0
152	0x00000000	0.0
153	0x00000000	0.0
154	0x00000000	0.0
155	0x00000000	0.0
156	0x00000000	0.0
157	0x00000000	0.0
158	0x00000000	0.0
159	0x00000000	0.0
160	0x00000000	0.0
161	0x00000000	0.0
162	0x00000000	0.0
163	0x00000000	0.0
164	0x00000000	0.0
165	0x00000000	0.0
166	0x00000000	0.0
167	0x00000000	0.0
168	0x00000000	0.0
169	0x00000000	0.0
170	0x00000000	0.0
171	0x00000000	0.0
172	0x00000000	0.0
173	0x00000000	0.0
174	0x00000000	0.0
175	0x00000000	0.0
176	0x00000000	0.0
177	0x00000000	0.0
178	0x00000000	0.0
179	0x00000000	0.0
180	0x00000000	0.0
181	0x00000000	0.0
182	0x00000000	0.0
183	0x00000000	0.0
184	0x00000000	0.0
185	0x00000000	0.0
186	0x00000000	0.0
187	0x00000000	0.0
188	0x00000000	0.0
189	0x00000000	0.0
190	0x00000000	0.0
191	0x00000000	0.0
192	0x00000000	0.0
193	0x00000000	0.0
194	0x00000000	0.0
195	0x00000000	0.0
196	0x00000000	0.0
197	0x00000000	0.0
198	0x00000000	0.0
199	0x00000000	0.0
200	0xb74297e4	-1.1598666e-05
201	0x36a8f610	5.0354356e-06
202	0x8bbae5bd	-7.1990266e-32
203	0x357d88cd	9.4448916e-07
204	0x39310258	0.00016880909
205	0xb72c0ecd	-1.0255445e-05
206	0x3717ec59	9.05533e-06
207	0xb281d970	-1.5116456e-08
208	0x38e627ef	0.00010974693
209	0xb2888f35	-1.5897607e-08
210	0x38608c84	5.3536627e-05
211	0x37be10fd	2.2657676e-05
212	0x3283c4aa	1.533984e-08
213	0x32ed9141	2.7656485e-08
214	0x3918bf9a	0.00014567227
215	0x37ca7dec	2.4138913e-05
216	0x398df1f3	0.00027073882
217	0x32942c7b	1.7249695e-08
218	0x3281de2b	1.5118607e-08
219	0xb7ab3467	-2.040919e-05
220	0x36570303	3.203925e-06
221	0xb89d0976	-7.4881056e-05
222	0xb8ba5164	-8.884331e-05
223	0x37278407	9.984716e-06
224	0xb5b66974	-1.3590748e-06
225	0xb7c1857a	-2.3069548e-05
226	0x8b7b20cc	-4.8365515e-32
227	0x38a8b28d	8.044122e-05
228	0x30addb07	1.2649658e-09
229	0xa80f1309	-7.942222e-15
230	0x376c00c8	1.4066878e-05
231	0x1842d971	2.5183692e-24
232	0xb8edeef4	-0.00011345549
233	0x3695532a	4.4502276e-06
234	0xb92b7b52	-0.00016353771
235	0x39867da5	0.00025652084
236	0xb7d10408	-2.4916619e-05
237	0xb95a5557	-0.00020821892
238	0xb6f1df49	-7.2083535e-06
239	0xb689be88	-4.105099e-06
240	0xb5af255c	-1.3049389e-06
241	0x386e890d	5.687126e-05
242	0x26289403	5.84873e-16
243	0xb84a5e2c	-4.8248257e-05
244	0xb8bb8cd9	-8.94309e-05
245	0x37cceda1	2.442935e-05
246	0xb91c515c	-0.00014907628
247	0xb6006f43	-1.913825e-06
248	0x32a46136	1.913632e-08
249	0x37c71c74	2.3735898e-05
250	0x8d6c3dd9	-7.279756e-31
251	0xa9925a90	-6.4994126e-14
252	0x00000000	0.0
253	0x29272f9e	3.712275e-14
254	0x283bd770	1.0427301e-14
255	0x2837d8a4	1.0205517e-14
